predictions/Other_Ideas/darts_logs/TCN_Model/checkpoints/last-epoch=4.ckpt (torch, 51744 bytes, 93 tensors)

res_blocks.0.conv1.bias f4 [3]
0	0x3cd86a81	0.026417973
1	0xbdab6144	-0.08368161
2	0x3c7ad276	0.015308967

res_blocks.0.conv1.weight_g f4 [3, 1, 1]
0	0x3f1a4f9e	0.60277736
1	0x3f5cf5bb	0.86312455
2	0x3f59852f	0.8496885

res_blocks.0.conv1.weight_v f4 [3, 19, 5]
0	0xbda1253f	-0.07868432
1	0xbdb814ae	-0.08988319
2	0x3c537822	0.01290706
3	0xbddb1b44	-0.1069856
4	0xbc642ad1	-0.013926224
5	0x3d30f868	0.04320565
6	0xbcade3f9	-0.02122687
7	0x3da0dab6	0.07854216
8	0xbd8a611b	-0.06756803
9	0x3cea6f3d	0.028617496
10	0x3ce4494e	0.027866986
11	0xbceb7084	-0.028740175
12	0x3d69f34f	0.057116803
13	0xbc654d81	-0.013995529
14	0xbdce805b	-0.100830756
15	0xbd15d7f5	-0.036582906
16	0xbd8a491b	-0.06752225
17	0x3cc03e2d	0.023467148
18	0xbd7edb9a	-0.062221147
19	0xbdf8eca4	-0.121545106
20	0xbcdb3f77	-0.02676366
21	0xbddc2eae	-0.10751091
22	0xbb6d0ca3	-0.0036170862
23	0xbdda9a80	-0.10674
24	0x3d5df817	0.054191675
25	0x3d141c34	0.03615971
26	0xbd6c7cd5	-0.057736237
27	0xbd8b0679	-0.06788344
28	0xbd3e62be	-0.046480887
29	0xbca3d15d	-0.019997293
30	0xbd271739	-0.04079363
31	0xbdbc0c2e	-0.091820106
32	0xbd38a634	-0.04508038
33	0x3db6238e	0.088935
34	0x3d56a8c0	0.052407026
35	0x3bb3577e	0.0054730764
36	0x3bab9279	0.0052359668
37	0xbdb7db38	-0.089773595
38	0x3cdf24b6	0.027239185
39	0xbcbef81c	-0.023311667
40	0xbd4e52cf	-0.05037194
41	0xbc781244	-0.015141074
42	0xbd7ad156	-0.061234795
43	0xbdbcbc46	-0.09215598
44	0x3c8849ac	0.016636692
45	0xbdcab0db	-0.09897014
46	0xbcc6fed0	-0.024291426
47	0xbdae4f72	-0.08511247
48	0xbdbd059d	-0.09229586
49	0x3cdac3ec	0.026704751
50	0xbc9e99c3	-0.019360429
51	0x3daa21ee	0.08307253
52	0x3d71da4a	0.059046067
53	0xbc2be729	-0.010492125
54	0xbb491294	-0.003068124
55	0x3cf77d94	0.030211248
56	0x3d154567	0.03644314
57	0x3d5c00b1	0.053711597
58	0xbdc27499	-0.094948955
59	0xbdbaab2b	-0.09114679
60	0x3cb2ea52	0.021840248
61	0x3dad9c3e	0.084770665
62	0xbc151923	-0.009100231
63	0xbd0e8e28	-0.03480354
64	0x3cfa573c	0.030559175
65	0xbd48d5ac	-0.0490319
66	0x3d743abf	0.059626337
67	0x3d11d8a9	0.035607014
68	0xbdd0fbcf	-0.10204279
69	0x3ce90e30	0.028449148
70	0x3c946aa9	0.018117266
71	0x3d932076	0.07183926
72	0xbd6cc5bb	-0.057805758
73	0xbc255ca2	-0.010092886
74	0xbd91f710	-0.071272016
75	0x3daa0abb	0.08302828
76	0xbdd048a6	-0.101701066
77	0x3b9418b1	0.004519545
78	0x3b9644a6	0.0045858203
79	0xbdd502b2	-0.10400905
80	0xbd2df632	-0.04247112
81	0x3d283627	0.04106727
82	0x3dc00a0d	0.09376917
83	0x3d93cbf8	0.07216638
84	0xbd922e39	-0.071377225
85	0x3da53b6d	0.08067975
86	0xbdac525d	-0.08414147
87	0x3d012b87	0.03153565
88	0xbcc4cd80	-0.024023771
89	0x3d19849b	0.037479978
90	0x3d1cdd22	0.038296826
91	0xbdd33c8a	-0.10314281
92	0xbd35c1a0	-0.04437411
93	0xbcda0e95	-0.026618281
94	0xbd433f68	-0.04766789
95	0xbd7ffd71	-0.06249756
96	0x3c540ebf	0.012942969
97	0x3c5992b7	0.013279608
98	0x3ca0828b	0.019593498
99	0xbd199629	-0.03749672
100	0xbd695335	-0.056964118
101	0xbdb348e7	-0.087541394
102	0xbc7e37cd	-0.015516234
103	0xbc4bf26c	-0.012447935
104	0xbd9027bc	-0.07038829
105	0x3d852190	0.06500542
106	0x3c343713	0.010999459
107	0x3d42fbb4	0.047603324
108	0x3e813b0e	0.25240368
109	0x3e17751b	0.14790766
110	0xbcf6882d	-0.03009423
111	0xbca56a0f	-0.020192174
112	0x3d14db64	0.03634204
113	0xbde369ac	-0.1110414
114	0xbe016205	-0.12635048
115	0xbdf70e09	-0.12063224
116	0xbe10f8f8	-0.14157474
117	0x3cdd59a6	0.027020287
118	0xbd62c23e	-0.055361025
119	0xbc3c0032	-0.011474656
120	0x3d0469ee	0.032327585
121	0x3db0a373	0.086249255
122	0x3dd406df	0.10352873
123	0x3e14e035	0.14538653
124	0x3e44e31e	0.19227263
125	0xbdbe6038	-0.09295696
126	0xbd9b5b15	-0.07585732
127	0xbd975c27	-0.073906235
128	0xbd50d134	-0.05098076
129	0xbd89e6e6	-0.067334935
130	0x3d108ed4	0.03529246
131	0x3d43e6e6	0.047827624
132	0x3d4ce014	0.050018385
133	0xbabca1c8	-0.0014391476
134	0xbd8e23d9	-0.06940431
135	0xbe0cc067	-0.1374527
136	0xbd196833	-0.037452888
137	0xbd6d1dc8	-0.05788973
138	0x3c86cb28	0.016454294
139	0x3bb50a84	0.005524935
140	0xbdfe158b	-0.12406453
141	0xbc338bf3	-0.010958659
142	0xbda590c8	-0.080842555
143	0x3c494f06	0.012286907
144	0xbd6a1fa2	-0.057159074
145	0xbd405c57	-0.046963062
146	0x3d5156cc	0.051108167
147	0x3d9c3118	0.076265514
148	0x3bb86cca	0.005628203
149	0x3df4b490	0.11948502
150	0x3c9f1e5b	0.019423654
151	0xbd9c1859	-0.076218314
152	0xbcc747d2	-0.024326239
153	0xbc3ca7d4	-0.011514623
154	0x38f749e3	0.0001179164
155	0x3cd9c526	0.026583266
156	0x3d9fe4e7	0.078073315
157	0xbce4de6f	-0.027938096
158	0x3d46797c	0.0484557
159	0x3d3578a4	0.044304505
160	0x3b4f488e	0.003162894
161	0x3d583755	0.052787144
162	0x3d5d95ad	0.05409782
163	0xbc85097a	-0.01623987
164	0xbcb038a9	-0.021511393
165	0x3d961d55	0.073298134
166	0x3cee2abb	0.02907311
167	0x3d6e1290	0.05812317
168	0xbdd3fd88	-0.103510916
169	0xbd87ebce	-0.06636773
170	0x3dac916f	0.08426177
171	0x3d8d47f6	0.06898491
172	0xbc31591d	-0.010824469
173	0x3e1eee06	0.15520486
174	0x3daae48d	0.08344374
175	0x3dbea75e	0.093092665
176	0x3dbf95e7	0.093547635
177	0x3d6d1a74	0.057886556
178	0xbd843e18	-0.06457156
179	0x3ce1f3ed	0.027582133
180	0xbd94a60b	-0.07258233
181	0x3b2f7173	0.0026770502
182	0x3dcbf389	0.0995856
183	0xbcea5296	-0.028603833
184	0xbcf3cae7	-0.029759837
185	0xbd01f9b3	-0.031732272
186	0xbd5f0d12	-0.054455824
187	0xbd7a0f3b	-0.06104968
188	0xbdc5f792	-0.09666361
189	0xbda13b4c	-0.07872638
190	0x3b1cc3c1	0.002392039
191	0xbd0c37ab	-0.034232777
192	0x3c87f988	0.016598478
193	0xbc696118	-0.01424434
194	0xbcabc330	-0.020967096
195	0x3d430aaa	0.047617592
196	0xbd922fd9	-0.071380325
197	0xbc9c5699	-0.019084262
198	0xbd84b521	-0.0647986
199	0xbcce98b4	-0.025219299
200	0x3d24d8c4	0.040245786
201	0x3da0f29e	0.078587756
202	0x3d976af6	0.07393448
203	0x3e2a2756	0.16616568
204	0x3dfcfdde	0.12353109
205	0x3c83a496	0.016069692
206	0xbd99aaf4	-0.0750331
207	0xbd04f64c	-0.03246145
208	0x3cad0cd6	0.021124285
209	0xbcda9619	-0.0266829
210	0xbdcd74cd	-0.100320436
211	0xbd1485ff	-0.0362606
212	0x3c43720d	0.011929047
213	0xbda62f08	-0.08114439
214	0xbde4fd81	-0.111811645
215	0x3c259e02	0.010108473
216	0x3dc8aa4e	0.09798108
217	0x3dcfff05	0.10156063
218	0x3e016e42	0.12639716
219	0x3d970886	0.073746726
220	0xbd7029d0	-0.058633626
221	0x3d77b49f	0.060474988
222	0xbcb8f2b7	-0.022576673
223	0xbda09925	-0.0784171
224	0x3d34ddc7	0.044156816
225	0xbd3ba459	-0.04581103
226	0x3d4da27c	0.050203785
227	0x3c7ef79c	0.015561964
228	0x3c3566ce	0.011071874
229	0xbd1f5796	-0.038901888
230	0xbe6637fd	-0.22482295
231	0xbe249d71	-0.16075684
232	0xbd08485f	-0.033272143
233	0xbd892bfc	-0.066978425
234	0xbdee7284	-0.11642936
235	0xbda0369e	-0.078229174
236	0xbb730aff	-0.0037085412
237	0xbd54bc4b	-0.051937383
238	0xbd5fbadd	-0.054621566
239	0x3b01dd91	0.0019815902
240	0x3c6973df	0.014248817
241	0xbca69a3e	-0.02033722
242	0x3d7d7ac4	0.061884657
243	0xbd750686	-0.059820674
244	0x3cdefb36	0.027219396
245	0x3d27b445	0.040943403
246	0x3d08d14f	0.033402737
247	0x3d3fbfa4	0.046813622
248	0x3d9bf51c	0.0761511
249	0xbcbcb7fd	-0.023036951
250	0xbd927b6f	-0.07152449
251	0x3cbcffe0	0.02307123
252	0xbc4d022e	-0.012512727
253	0xbc95e92c	-0.018299662
254	0x3c8a5a0d	0.016888643
255	0xbd743725	-0.059622902

res_blocks.0.conv2.bias f4 [3]
0	0x3b991137	0.0046712416
1	0xbacacf9f	-0.0015473253
2	0xbb1cd700	-0.002393186

res_blocks.0.conv2.weight_g f4 [3, 1, 1]
0	0x3f4d4704	0.80186486
1	0x3f44d26a	0.76883566
2	0x3f4be76f	0.79650015

res_blocks.0.conv2.weight_v f4 [3, 3, 5]
0	0x3946b543	0.00018950277
1	0x268a2bf8	9.587591e-16
2	0xbc9433b0	-0.018091053
3	0xa7590fa2	-3.0123274e-15
4	0xa9a90c12	-7.5072015e-14
5	0x3e96e818	0.29473948
6	0x3e8a0cf0	0.26962996
7	0x3e8642ad	0.26222745
8	0x3e464868	0.19363558
9	0xbbd75704	-0.0065716524
10	0x3e420075	0.18945487
11	0x3e30c95f	0.17264317
12	0x3dd00ef5	0.10159103
13	0x3cbbc626	0.022921633
14	0x3d5b9f82	0.053618915
15	0xbcf6a299	-0.03010683
16	0xbdac3b90	-0.08409798
17	0x3dafe920	0.08589387
18	0xbd3561c6	-0.044282697
19	0xbdf8c066	-0.12146072
20	0x3e4b43ef	0.19850133
21	0x3e7aaf22	0.2448087
22	0x3e65e880	0.22451973
23	0x3edd5cd2	0.4323488
24	0x3e08a490	0.13344026
25	0x3cf18668	0.029483035
26	0x3bdc53e0	0.006723866
27	0x3ebb935d	0.36635867
28	0x3e95444c	0.2915367
29	0x3d8e1a21	0.069385774
30	0x30072d4b	4.917708e-10
31	0x35047c69	4.935487e-07
32	0xa8288220	-9.35409e-15
33	0xbbc3a12b	-0.0059701405
34	0xbc89460b	-0.016757032
35	0x3e5862d4	0.2113145
36	0x3e3d0c49	0.18461718
37	0x3e42dde6	0.1902996
38	0x3e00079b	0.12502901
39	0x3ca56532	0.020189855
40	0x3e60c34a	0.21949497
41	0x3e57c7e8	0.21072352
42	0x3d95835f	0.07300448
43	0x3b0ca66f	0.0021461507
44	0x3e144590	0.14479661

res_blocks.0.conv3.weight f4 [3, 19, 1]
0	0x3eab93a5	0.3351108
1	0x3d837563	0.06418874
2	0x3deef583	0.116679214
3	0x3d320c44	0.04346873
4	0x3e423e02	0.18968967
5	0x3d5d2b95	0.05399664
6	0xbe180d74	-0.14848882
7	0x3da9209c	0.08258173
8	0x3e26456b	0.16237418
9	0x3d35dd0e	0.044400267
10	0x3de0002f	0.10937535
11	0xbc105cb4	-0.008811165
12	0x3cdc6c64	0.026907153
13	0xbd74171f	-0.059592362
14	0xbd3ef265	-0.046617884
15	0xbafe39dc	-0.0019395906
16	0xbc4eae0e	-0.01261474
17	0x3eb1ff1a	0.3476494
18	0xbe091b14	-0.13389236
19	0xbdc1d5fc	-0.094646424
20	0xbe35f356	-0.17768607
21	0xbd8804b2	-0.066415206
22	0x3db6097d	0.088885285
23	0xbe317452	-0.17329529
24	0xbe051900	-0.12997818
25	0x3df91245	0.12161688
26	0xbe04adcb	-0.12956922
27	0xbe2a0f91	-0.166075
28	0xbc870da7	-0.016486002
29	0xba3baeee	-0.00071595504
30	0x3e0e7435	0.13911517
31	0xbc485f9e	-0.012229828
32	0xbe4f496c	-0.20242852
33	0x3e4a6dd1	0.19768454
34	0x3e112929	0.14175858
35	0x3df0febe	0.11767338
36	0x3ee52fa0	0.44762897
37	0x3d1046d8	0.035223812
38	0x3ea95fdd	0.3308095
39	0xbc0b9cec	-0.0085213
40	0x3d562529	0.052281532
41	0x3e689a30	0.22715068
42	0x3c053e67	0.008132554
43	0xbd8fb805	-0.07017521
44	0xbb2ef9ab	-0.0026699107
45	0x3e268789	0.1626264
46	0x3e632c17	0.22184788
47	0x3db8933e	0.09012459
48	0xbdc1eddf	-0.094691984
49	0xbcb9adca	-0.022665877
50	0x3db7d4f2	0.08976163
51	0x3e1eb014	0.15496856
52	0x3d46eac6	0.04856374
53	0x3d954933	0.07289352
54	0x3d90e632	0.07075156
55	0x3e8d41c8	0.2758925
56	0x3e501f0f	0.20324348

res_blocks.0.conv3.bias f4 [3]
0	0x3dc21fbe	0.094787106
1	0x3e385b68	0.18003619
2	0x3eb06310	0.3445058

res_blocks.1.conv1.bias f4 [3]
0	0xbcb0dbaa	-0.021589119
1	0x3db0a8f1	0.08625973
2	0xbe4c3ad9	-0.19944324

res_blocks.1.conv1.weight_g f4 [3, 1, 1]
0	0x3f3901a3	0.7226812
1	0x3f81f7d1	1.0153753
2	0x3f25d5c7	0.64779323

res_blocks.1.conv1.weight_v f4 [3, 3, 5]
0	0x3e13fd70	0.14452147
1	0x3d98c311	0.07459081
2	0x3d9b4c30	0.07582891
3	0xbe73395b	-0.23752348
4	0xbdf742b2	-0.12073268
5	0x3e15ddaa	0.1463534
6	0xbe389191	-0.18024279
7	0x3e800122	0.25000864
8	0xbc026185	-0.007957821
9	0xbe664071	-0.2248552
10	0x3e16707f	0.14691351
11	0x3de534a3	0.1119168
12	0xbd6a7210	-0.057237685
13	0xbe85260d	-0.26005593
14	0x3dce3575	0.1006879
15	0xbc814d56	-0.015783947
16	0x3da4bf2b	0.08044275
17	0x3e2eeae3	0.1708179
18	0x3dcc0f2c	0.09963831
19	0xbe9d4ac5	-0.30721107
20	0x3df747e4	0.12074259
21	0x3da75402	0.0817032
22	0xbc20eda2	-0.009822281
23	0x3cfba2c1	0.030717256
24	0xbe7df49b	-0.24800341
25	0xbd028acb	-0.031870645
26	0x3d9729bc	0.07381007
27	0x3d1ce390	0.038302958
28	0x3dc954a2	0.098305956
29	0xbe6d40b4	-0.23169214
30	0x3e76b371	0.24091889
31	0x3db7fa8f	0.08983337
32	0xbe1f7f3e	-0.15575883
33	0x3e6ce0ae	0.23132583
34	0xbe741e25	-0.23839624
35	0x3e406585	0.18788727
36	0x3d48b752	0.049002953
37	0xbe0e5e3e	-0.13903138
38	0xbda0e842	-0.078568
39	0xbd678dd9	-0.05653176
40	0xbe81e355	-0.25368753
41	0xbe0a544b	-0.13508718
42	0xbd279e6e	-0.040922575
43	0xbe8268b5	-0.2547051
44	0xbd6d8131	-0.057984535

res_blocks.1.conv2.bias f4 [3]
0	0x3b98b8c1	0.0046606963
1	0x3b141f2a	0.0022601583
2	0x3c06fb4a	0.008238623

res_blocks.1.conv2.weight_g f4 [3, 1, 1]
0	0x3f4b6bae	0.7946118
1	0x3f441b90	0.7660456
2	0x3f86be7a	1.0526879

res_blocks.1.conv2.weight_v f4 [3, 3, 5]
0	0xbdec2c66	-0.11531906
1	0xbcc0f39e	-0.023553666
2	0x3e20016a	0.1562554
3	0xbd3d43f8	-0.0462074
4	0x3c6ab9da	0.014326537
5	0x3be79225	0.0070669823
6	0xbd0d7963	-0.03453959
7	0x3c3f4164	0.011673305
8	0x3e44ee0c	0.19231433
9	0x3ea49341	0.32143596
10	0x3064c5eb	8.3227175e-10
11	0x3d5f6838	0.05454275
12	0x3a2a6df0	0.00065013673
13	0x39b056dc	0.0003363405
14	0x303b0bc0	6.80469e-10
15	0xbe554f88	-0.2083112
16	0x3d8643a6	0.06555872
17	0x3e73b814	0.23800689
18	0x3c31918e	0.010837926
19	0x3dd72d9f	0.105067484
20	0xbd867956	-0.06566112
21	0x3dbc92e2	0.09207703
22	0x3bc01b54	0.0058626328
23	0x3d582991	0.052774016
24	0x3e95f7a9	0.29290512
25	0x3c03f007	0.008052832
26	0xbe085948	-0.13315308
27	0x3dab39c6	0.08360629
28	0x3dff1078	0.12454313
29	0xbd9a6584	-0.07538894
30	0xbdfe08fd	-0.12404058
31	0xbdae39dd	-0.0850713
32	0x3ce2ea3b	0.02769958
33	0xbd52bb5c	-0.05144821
34	0x3cc792a9	0.024361925
35	0x3db31496	0.08744161
36	0x3dcacf4f	0.09902822
37	0xbd3d59a8	-0.04622808
38	0x3dafd015	0.085846104
39	0x3ea1f2ba	0.31630498
40	0xaff86b5a	-4.5187215e-10
41	0xb020365a	-5.82849e-10
42	0xb04431fa	-7.1375406e-10
43	0x310d1098	2.0527633e-09
44	0x3090955a	1.0519827e-09

res_blocks.2.conv1.bias f4 [3]
0	0xbe2f92fb	-0.17145912
1	0xbcaa3840	-0.020778775
2	0x3e186233	0.1488121

res_blocks.2.conv1.weight_g f4 [3, 1, 1]
0	0x3f1efd74	0.6210549
1	0x3f21be64	0.6318114
2	0x3f19d575	0.60091335

res_blocks.2.conv1.weight_v f4 [3, 3, 5]
0	0x3e6f170c	0.23348635
1	0xbd175a4f	-0.03695136
2	0xbaed0dbc	-0.0018085758
3	0xbe248fb8	-0.1607045
4	0x3e99d5ba	0.30045873
5	0xba373f37	-0.0006990316
6	0xbe1df567	-0.15425645
7	0x3b9418b0	0.0045195445
8	0x3dea8614	0.114513546
9	0x3ef1f917	0.47260353
10	0xbbe1469a	-0.0068748714
11	0x3c55ad2d	0.013041777
12	0x3d93bd59	0.072138496
13	0xbda611dd	-0.08108876
14	0x3d00db4c	0.031459138
15	0x3d317447	0.04332378
16	0xbe248577	-0.16066538
17	0xbe27664f	-0.16347621
18	0x3db5db75	0.08879749
19	0xbeb3f2de	-0.3514623
20	0xbe3582c0	-0.17725658
21	0x3dd4672f	0.10371243
22	0x3e112e7c	0.14177889
23	0xbdf58462	-0.11988141
24	0x3e92747c	0.28604496
25	0x3d70b61b	0.05876742
26	0xbdd94a37	-0.106098585
27	0x3dbe7862	0.09300305
28	0x3e32cb61	0.17460395
29	0xbd7ac147	-0.06121948
30	0xbe4801f9	-0.19532003
31	0xbe8899e3	-0.26679906
32	0xbe0ae38b	-0.13563363
33	0xbe8d6992	-0.27619606
34	0x3da630a1	0.08114744
35	0xbe83b128	-0.25721097
36	0xbe805a6c	-0.25068986
37	0xbd3f5afe	-0.046717636
38	0x3e63694a	0.22208133
39	0x3db35606	0.08756642
40	0xbe7b8501	-0.24562456
41	0x3ba0e3d8	0.0049099736
42	0x3d0ecbe3	0.03486241
43	0x3e34abd6	0.17643675
44	0x3e847f34	0.25878298

res_blocks.2.conv2.bias f4 [3]
0	0xbc9872f5	-0.018609503
1	0xbd92809f	-0.07153439
2	0x3d8ff9c7	0.07030063

res_blocks.2.conv2.weight_g f4 [3, 1, 1]
0	0x3ecabe7d	0.39598456
1	0x3f27b842	0.6551553
2	0x3f0fdfa9	0.56200653

res_blocks.2.conv2.weight_v f4 [3, 3, 5]
0	0xbe15ff4a	-0.14648166
1	0x3da1f10e	0.07907306
2	0x3e472ae0	0.1944995
3	0x3d7d86af	0.061896022
4	0x3e158f65	0.14605482
5	0x3ea4df1e	0.32201475
6	0x3e62e2d6	0.22156844
7	0x3ea2a3c8	0.3176558
8	0xbe88dc91	-0.2673078
9	0x3e95ddd5	0.29270807
10	0x3d9322fb	0.07184406
11	0xbe238800	-0.15969849
12	0x3c6484fa	0.01394772
13	0xbda33519	-0.07969112
14	0x3cd539f3	0.026028609
15	0x3d5874a5	0.052845616
16	0xbe309f73	-0.17248325
17	0xbe039f11	-0.12853648
18	0x3e926bd1	0.28597882
19	0x3d8f9ec0	0.07012701
20	0xbdcfcd13	-0.10146537
21	0x3dc70380	0.097174644
22	0x3d9c6621	0.07636667
23	0x3da00234	0.0781292
24	0xbdcce414	-0.1000444
25	0x3d0aec5b	0.033916812
26	0xbd74a52a	-0.059727825
27	0xbe55ab59	-0.20866145
28	0xbe5ccca2	-0.21562436
29	0x3e03709d	0.12835927
30	0x3e2e894d	0.17044564
31	0x3c8b4fac	0.017005764
32	0xbd00844b	-0.031376164
33	0xbe07e6e9	-0.13271679
34	0xbe5d9cd4	-0.21641856
35	0x3dbf82bb	0.09351107
36	0xbbe3408a	-0.006935184
37	0x3dc3fb3b	0.09569403
38	0x3d01584f	0.03157836
39	0x3d88fdb8	0.06689018
40	0xbc681b79	-0.014166706
41	0x3c63222d	0.013863129
42	0xbd8cd0b3	-0.06875744
43	0xbdb3fa68	-0.087879956
44	0xbe460da1	-0.19341137

res_blocks.3.conv1.bias f4 [3]
0	0xbe7133da	-0.23554936
1	0x3dfadbe3	0.12248971
2	0x3e290a5f	0.16507863

res_blocks.3.conv1.weight_g f4 [3, 1, 1]
0	0x3f0b0922	0.5431081
1	0x3eb0d6d5	0.34538904
2	0x3ebf3bd7	0.37350342

res_blocks.3.conv1.weight_v f4 [3, 3, 5]
0	0x3d9a9ad0	0.075490594
1	0xbe3bca46	-0.1833888
2	0x3e10515c	0.14093536
3	0xbda2a162	-0.079409376
4	0x3d1ad13f	0.03779721
5	0x3e404595	0.18776543
6	0x3e627683	0.22115521
7	0xbe40f50d	-0.1884348
8	0xbe0e87ff	-0.13919066
9	0xbd99d0be	-0.075105175
10	0xbd47cd87	-0.04877999
11	0x3cb7788b	0.022396347
12	0x3dfe5674	0.124188334
13	0xbe70c7ae	-0.23513672
14	0xbe4dd837	-0.2010201
15	0xbecb7482	-0.39737326
16	0xbd87b693	-0.0662662
17	0xbe93a39d	-0.28835765
18	0xbd53121c	-0.051530942
19	0x3cf47551	0.029841097
20	0xbe9cbbbe	-0.30611986
21	0x3d315f61	0.04330385
22	0x3c137ae2	0.0090014655
23	0xbde47113	-0.1115438
24	0xbdf81a13	-0.12114348
25	0xbe834245	-0.25636497
26	0xbdd22d9e	-0.10262607
27	0x3e212b1b	0.157391
28	0xbd0dd484	-0.0346265
29	0x3e2293a6	0.15876636
30	0xbe9944ae	-0.2993521
31	0x3dfc6bd2	0.123252526
32	0x3c764ce5	0.0150329815
33	0xbe382337	-0.17982183
34	0x3d8d03f9	0.06885523
35	0xbd5116f1	-0.05104727
36	0x3e418d66	0.18901595
37	0xbdbf2d71	-0.09334839
38	0x3d8bb30c	0.0682126
39	0xbe266e1c	-0.16252941
40	0xbd5fc60b	-0.054632228
41	0x3d8cf15f	0.068819754
42	0xbd2fa3d1	-0.042880837
43	0x3cf6f392	0.03014544
44	0x3d696bf0	0.056987703

res_blocks.3.conv2.bias f4 [3]
0	0x3c974287	0.01846434
1	0x3d9ce1de	0.07660268
2	0x3c6fd0fd	0.014637229

res_blocks.3.conv2.weight_g f4 [3, 1, 1]
0	0x3eacd0a1	0.3375292
1	0x3f34fa31	0.7069426
2	0x3eb7f8a4	0.35931885

res_blocks.3.conv2.weight_v f4 [3, 3, 5]
0	0xbe8db51c	-0.27677238
1	0xbe5c1475	-0.21492179
2	0x3eb83c6b	0.35983595
3	0x3e47d7fb	0.19515984
4	0x3e588e30	0.2114799
5	0xbdb4696a	-0.08809169
6	0xbc430b40	-0.011904538
7	0xbd0d9e51	-0.03457481
8	0x3e2ea0de	0.17053553
9	0x3e2f5dcf	0.17125629
10	0x3e23b3df	0.15986584
11	0xbd1b7f5c	-0.037963256
12	0xbd78246d	-0.060581613
13	0xbe3e83eb	-0.1860501
14	0xbdbd5f6a	-0.092467144
15	0x3bcf1e8f	0.0063207815
16	0x3c7ae15c	0.015312519
17	0xbe334365	-0.17506178
18	0xbd73dfb0	-0.059539497
19	0xbd0acb8b	-0.03388552
20	0xbdb0ad6e	-0.08626829
21	0xbce7708d	-0.02825191
22	0xbdfecc35	-0.12441293
23	0xbe0ce931	-0.1376083
24	0xbde15618	-0.11002749
25	0xbddf5af4	-0.1090602
26	0xbd4119ba	-0.047143675
27	0xbe73f581	-0.23824121
28	0xbed00a8a	-0.4063304
29	0xbdf06fda	-0.11740084
30	0xbf0481bc	-0.5176046
31	0xbede44ef	-0.43411967
32	0x3eece122	0.46265513
33	0x3ec7d8f2	0.39032704
34	0x3f033fed	0.5126942
35	0xbd6926f5	-0.056921918
36	0xbe1fc779	-0.15603437
37	0x3d03142a	0.03200165
38	0x3d05e6e3	0.032690894
39	0xbdc7737e	-0.09738825
40	0xbe25c73d	-0.16189285
41	0xbe12b3da	-0.1432642
42	0xbc7d68f6	-0.015466919
43	0x3d29d689	0.041464362
44	0x3d66f0d9	0.056382034

res_blocks.4.conv1.bias f4 [3]
0	0xbe88ee7c	-0.2674445
1	0x3cf903e1	0.030397357
2	0xbb95f84c	-0.0045767184

res_blocks.4.conv1.weight_g f4 [3, 1, 1]
0	0x3f101e50	0.56296253
1	0x3ef4ca98	0.47810817
2	0x3f028faf	0.51000494

res_blocks.4.conv1.weight_v f4 [3, 3, 5]
0	0xbe1d8f28	-0.15386641
1	0x3dce40b1	0.10070933
2	0x3de81579	0.113322206
3	0xbe919417	-0.28433296
4	0xbe8b3e16	-0.27195805
5	0xbc57f90c	-0.013181936
6	0x3cb07b05	0.021543035
7	0x3ded2274	0.11578837
8	0x3ddafcea	0.10692771
9	0xbc53584f	-0.012899472
10	0x3e15936a	0.14607015
11	0xbe1ef97a	-0.15524855
12	0xbde7d4c9	-0.113198824
13	0xbde82bf3	-0.11336508
14	0x3e515fb9	0.20446672
15	0x3eee6420	0.46560764
16	0xbe101b56	-0.14072928
17	0x3d8c0af4	0.06838027
18	0x3dd089d4	0.10182539
19	0xbc485194	-0.012226481
20	0x3d986c75	0.074425615
21	0x3e56c93e	0.20975205
22	0x3e68d70f	0.22738288
23	0x3dcceb76	0.10005848
24	0x3e3fd48e	0.18733427
25	0xbd5db503	-0.054127704
26	0xbe383713	-0.17989759
27	0xbe67bdd6	-0.2263101
28	0x3e2fb415	0.1715854
29	0xbe0b36f5	-0.13595183
30	0xbe26c831	-0.16287304
31	0x3d5b9839	0.053611968
32	0xbd190d6f	-0.037366327
33	0xbd491f72	-0.049102254
34	0xbe2b5fe9	-0.16735806
35	0x3c5d9034	0.01352315
36	0xbda51cd3	-0.080621384
37	0xbd7f34e8	-0.062306315
38	0xbe66ff3a	-0.22558299
39	0xbd6c94f2	-0.057759233
40	0x3e752852	0.23941162
41	0xbdd9dd7a	-0.106379464
42	0xbe83f4fd	-0.2577285
43	0x3db0c67c	0.08631608
44	0xbd7e67bb	-0.062110644

res_blocks.4.conv2.weight_v f4 [1, 3, 5]
0	0xbe360ad3	-0.17777567
1	0x3e2142f1	0.15748192
2	0x3ed4c824	0.41558945
3	0xbe655d04	-0.22398764
4	0xbe3bebdf	-0.18351696
5	0x3cf5c9e8	0.030003503
6	0x3b140cae	0.0022590565
7	0x3d04d239	0.032427046
8	0x3d4bbc2e	0.04974001
9	0x3abcc098	0.0014400659
10	0xbe90241e	-0.28152555
11	0xbe83f4e1	-0.25772765
12	0x3ecc3997	0.39887688
13	0xbe643f9e	-0.22289893
14	0x3eccbed5	0.39989343

res_blocks.4.conv3.weight f4 [1, 3, 1]
0	0x3e4fd4a2	0.20295957
1	0x3e5e77df	0.21725415
2	0x3e313c7a	0.17308226

exp_avg f4 [3]
0	0x00000000	0.0
1	0x37ff60cf	3.0443449e-05
2	0x38d32e19	0.000100698504

exp_avg_sq f4 [3]
0	0x00000000	0.0
1	0x348b5235	2.595058e-07
2	0x34b7d917	3.424436e-07

exp_avg f4 [3, 1, 1]
0	0x00000000	0.0
1	0xb860f10e	-5.363026e-05
2	0xb7a2d6e5	-1.9411973e-05

exp_avg_sq f4 [3, 1, 1]
0	0x00000000	0.0
1	0x32b394cd	2.090601e-08
2	0x3217f6be	8.8454595e-09

exp_avg f4 [3, 19, 5]
0	0x00000000	0.0
1	0x00000000	0.0
2	0x00000000	0.0
3	0x00000000	0.0
4	0x00000000	0.0
5	0x00000000	0.0
6	0x00000000	0.0
7	0x00000000	0.0
8	0x00000000	0.0
9	0x00000000	0.0
10	0x00000000	0.0
11	0x00000000	0.0
12	0x00000000	0.0
13	0x00000000	0.0
14	0x00000000	0.0
15	0x00000000	0.0
16	0x00000000	0.0
17	0x00000000	0.0
18	0x00000000	0.0
19	0x00000000	0.0
20	0x00000000	0.0
21	0x00000000	0.0
22	0x00000000	0.0
23	0x00000000	0.0
24	0x00000000	0.0
25	0x00000000	0.0
26	0x00000000	0.0
27	0x00000000	0.0
28	0x00000000	0.0
29	0x00000000	0.0
30	0x00000000	0.0
31	0x00000000	0.0
32	0x00000000	0.0
33	0x00000000	0.0
34	0x00000000	0.0
35	0x00000000	0.0
36	0x00000000	0.0
37	0x00000000	0.0
38	0x00000000	0.0
39	0x00000000	0.0
40	0x00000000	0.0
41	0x00000000	0.0
42	0x00000000	0.0
43	0x00000000	0.0
44	0x00000000	0.0
45	0x00000000	0.0
46	0x00000000	0.0
47	0x00000000	0.0
48	0x00000000	0.0
49	0x00000000	0.0
50	0x00000000	0.0
51	0x00000000	0.0
52	0x00000000	0.0
53	0x00000000	0.0
54	0x00000000	0.0
55	0x00000000	0.0
56	0x00000000	0.0
57	0x00000000	0.0
58	0x00000000	0.0
59	0x00000000	0.0
60	0x00000000	0.0
61	0x00000000	0.0
62	0x00000000	0.0
63	0x00000000	0.0
64	0x00000000	0.0
65	0x00000000	0.0
66	0x00000000	0.0
67	0x00000000	0.0
68	0x00000000	0.0
69	0x00000000	0.0
70	0x00000000	0.0
71	0x00000000	0.0
72	0x00000000	0.0
73	0x00000000	0.0
74	0x00000000	0.0
75	0x00000000	0.0
76	0x00000000	0.0
77	0x00000000	0.0
78	0x00000000	0.0
79	0x00000000	0.0
80	0x00000000	0.0
81	0x00000000	0.0
82	0x00000000	0.0
83	0x00000000	0.0
84	0x00000000	0.0
85	0x00000000	0.0
86	0x00000000	0.0
87	0x00000000	0.0
88	0x00000000	0.0
89	0x00000000	0.0
90	0x00000000	0.0
91	0x00000000	0.0
92	0x00000000	0.0
93	0x00000000	0.0
94	0x00000000	0.0
95	0x38015fee	3.084534e-05
96	0x3764ad4b	1.3630207e-05
97	0x3766365d	1.3721726e-05
98	0x3617a09c	2.259424e-06
99	0x372e5c6e	1.0392729e-05
100	0x37072569	8.055337e-06
101	0x37331a92	1.0675418e-05
102	0x370d1aa5	8.410459e-06
103	0x360e6682	2.1219316e-06
104	0xb697db2c	-4.5256656e-06
105	0x38084edc	3.249837e-05
106	0x3796b398	1.7965023e-05
107	0x3603d274	1.964302e-06
108	0x37b8504d	2.1971902e-05
109	0x3718c88d	9.1066e-06
110	0xb7513197	-1.2468917e-05
111	0xb556fbc5	-8.0087585e-07
112	0x373c6988	1.1230244e-05
113	0x37838434	1.5677979e-05
114	0x38025d23	3.1081156e-05
115	0x385c5a31	5.2536085e-05
116	0x382dcc96	4.143695e-05
117	0x3833a841	4.2833624e-05
118	0x37e04630	2.6735564e-05
119	0x37fd5769	3.0200654e-05
120	0x36544767	3.1632023e-06
121	0xb6f7473f	-7.3694678e-06
122	0xb7360b72	-1.085071e-05
123	0xb7ad2e37	-2.0644728e-05
124	0xb75a3c00	-1.3007782e-05
125	0x37d24e3d	2.5070383e-05
126	0x375b1317	1.3057862e-05
127	0x3729a1e6	1.011088e-05
128	0x37705119	1.4323997e-05
129	0x37832468	1.563337e-05
130	0x38164feb	3.5837216e-05
131	0x372626e5	9.903427e-06
132	0x36550d6a	3.1747281e-06
133	0xb784a80e	-1.5813883e-05
134	0xb6f34e12	-7.251053e-06
135	0x3824bc32	3.9275918e-05
136	0x378997d4	1.6402373e-05
137	0x36cdab52	6.1294204e-06
138	0x36191529	2.2811093e-06
139	0x374a4889	1.2057027e-05
140	0x379f50dd	1.8991932e-05
141	0x37bc394d	2.243803e-05
142	0x3735f33f	1.0845076e-05
143	0x378b804d	1.6629836e-05
144	0x37a13c36	1.9220734e-05
145	0xb7e31db4	-2.707434e-05
146	0xb70236a9	-7.76133e-06
147	0x359b55ee	1.1573409e-06
148	0xb7d68202	-2.5571328e-05
149	0xb7a52833	-1.9688252e-05
150	0x373e2f51	1.1335899e-05
151	0x3744bb0c	1.1726061e-05
152	0x36547b86	3.1662362e-06
153	0xb663b423	-3.393049e-06
154	0xb5ebcf2c	-1.7569159e-06
155	0xb80154c9	-3.083496e-05
156	0x37d28ddc	2.510001e-05
157	0xb8269736	-3.971831e-05
158	0x3803cfc0	3.1426316e-05
159	0x38061107	3.1963948e-05
160	0x37f67b3f	2.9382876e-05
161	0x3804c96b	3.1658838e-05
162	0x37709913	1.4340755e-05
163	0x38385cef	4.395557e-05
164	0x38417c7b	4.6130717e-05
165	0x3813022b	3.504955e-05
166	0x38268c89	3.9708368e-05
167	0x3797c267	1.8091128e-05
168	0x378581a4	1.5915204e-05
169	0xb6fbf465	-7.508834e-06
170	0x3758f9c3	1.2932755e-05
171	0x36de4cf5	6.6250745e-06
172	0xb7425cb7	-1.1584888e-05
173	0x360a4fb5	2.0609998e-06
174	0x3442bdc1	1.813669e-07
175	0x387c75f9	6.0191353e-05
176	0x387bf71c	6.0073202e-05
177	0x385b76bf	5.232426e-05
178	0x382913ca	4.031117e-05
179	0x3849c103	4.810189e-05
180	0x37e63b4b	2.7445747e-05
181	0x37cceaa8	2.4427965e-05
182	0x37ddf4e3	2.6459287e-05
183	0x374e4bd0	1.2296208e-05
184	0x3713974f	8.797112e-06
185	0x3722ef63	9.711689e-06
186	0xb5974a85	-1.1272065e-06
187	0xb6d380e8	-6.3032967e-06
188	0xb76baadf	-1.4046876e-05
189	0xb73f8db0	-1.1417476e-05
190	0x37ed9beb	2.8325207e-05
191	0x37a1fe83	1.9311212e-05
192	0x37d76253	2.5675783e-05
193	0x37c13818	2.3033514e-05
194	0x37a32d2e	1.9452153e-05
195	0x38ab9988	8.182513e-05
196	0x38a44641	7.833215e-05
197	0x389f1791	7.5861004e-05
198	0x388ba525	6.658797e-05
199	0x383d9744	4.520199e-05
200	0x38191701	3.6499467e-05
201	0x37a5b7e7	1.9755169e-05
202	0x35e510d6	1.706673e-06
203	0x3755701a	1.272189e-05
204	0x37bb7a9d	2.2349233e-05
205	0x38d08c9a	9.944402e-05
206	0x38c5459c	9.406658e-05
207	0x38c033af	9.1649e-05
208	0x38d24b52	0.0001002761
209	0x38da41dc	0.00010407317
210	0x37f267e4	2.8897026e-05
211	0x37fbdbe4	3.0023926e-05
212	0x38070140	3.2187672e-05
213	0x37e13de3	2.6850908e-05
214	0x37db2280	2.61229e-05
215	0x37c2400a	2.3156423e-05
216	0x37a34908	1.9465122e-05
217	0x3791f21e	1.7398092e-05
218	0x3712427e	8.71776e-06
219	0x36ead03b	6.9979847e-06
220	0x38a3dc66	7.813498e-05
221	0x38a5035a	7.8684374e-05
222	0x38a3249b	7.779264e-05
223	0x389888a5	7.273377e-05
224	0x3896022b	7.152961e-05
225	0x3861c882	5.3830918e-05
226	0x3849e869	4.8138583e-05
227	0x38548164	5.0665243e-05
228	0x383cba79	4.499636e-05
229	0x3827084d	3.9823633e-05
230	0x38351c95	4.3180382e-05
231	0x37c453ce	2.3404045e-05
232	0x37eba03e	2.8088802e-05
233	0x37a108ef	1.9196856e-05
234	0x37c52512	2.3501492e-05
235	0x384ab116	4.8325477e-05
236	0x384b125d	4.8416074e-05
237	0x383b1828	4.460677e-05
238	0x382c9894	4.1150095e-05
239	0x3841e5c9	4.622879e-05
240	0x37ad1614	2.0633488e-05
241	0x37da89cc	2.6051792e-05
242	0x3811f32e	3.4797173e-05
243	0x379b7162	1.8530238e-05
244	0x37a8faab	2.0143887e-05
245	0x3881f203	6.1962775e-05
246	0x3889a260	6.562914e-05
247	0x3873d11f	5.8130474e-05
248	0x3854c33d	5.072657e-05
249	0x37c8b147	2.392441e-05
250	0x37a8edc3	2.0137877e-05
251	0x3801507f	3.0830965e-05
252	0x373cb155	1.1246962e-05
253	0x382357a0	3.8943836e-05
254	0x385f63bc	5.3260228e-05
255	0x385d3c00	5.2746385e-05

exp_avg_sq f4 [3, 19, 5]
0	0x00000000	0.0
1	0x00000000	0.0
2	0x00000000	0.0
3	0x00000000	0.0
4	0x00000000	0.0
5	0x00000000	0.0
6	0x00000000	0.0
7	0x00000000	0.0
8	0x00000000	0.0
9	0x00000000	0.0
10	0x00000000	0.0
11	0x00000000	0.0
12	0x00000000	0.0
13	0x00000000	0.0
14	0x00000000	0.0
15	0x00000000	0.0
16	0x00000000	0.0
17	0x00000000	0.0
18	0x00000000	0.0
19	0x00000000	0.0
20	0x00000000	0.0
21	0x00000000	0.0
22	0x00000000	0.0
23	0x00000000	0.0
24	0x00000000	0.0
25	0x00000000	0.0
26	0x00000000	0.0
27	0x00000000	0.0
28	0x00000000	0.0
29	0x00000000	0.0
30	0x00000000	0.0
31	0x00000000	0.0
32	0x00000000	0.0
33	0x00000000	0.0
34	0x00000000	0.0
35	0x00000000	0.0
36	0x00000000	0.0
37	0x00000000	0.0
38	0x00000000	0.0
39	0x00000000	0.0
40	0x00000000	0.0
41	0x00000000	0.0
42	0x00000000	0.0
43	0x00000000	0.0
44	0x00000000	0.0
45	0x00000000	0.0
46	0x00000000	0.0
47	0x00000000	0.0
48	0x00000000	0.0
49	0x00000000	0.0
50	0x00000000	0.0
51	0x00000000	0.0
52	0x00000000	0.0
53	0x00000000	0.0
54	0x00000000	0.0
55	0x00000000	0.0
56	0x00000000	0.0
57	0x00000000	0.0
58	0x00000000	0.0
59	0x00000000	0.0
60	0x00000000	0.0
61	0x00000000	0.0
62	0x00000000	0.0
63	0x00000000	0.0
64	0x00000000	0.0
65	0x00000000	0.0
66	0x00000000	0.0
67	0x00000000	0.0
68	0x00000000	0.0
69	0x00000000	0.0
70	0x00000000	0.0
71	0x00000000	0.0
72	0x00000000	0.0
73	0x00000000	0.0
74	0x00000000	0.0
75	0x00000000	0.0
76	0x00000000	0.0
77	0x00000000	0.0
78	0x00000000	0.0
79	0x00000000	0.0
80	0x00000000	0.0
81	0x00000000	0.0
82	0x00000000	0.0
83	0x00000000	0.0
84	0x00000000	0.0
85	0x00000000	0.0
86	0x00000000	0.0
87	0x00000000	0.0
88	0x00000000	0.0
89	0x00000000	0.0
90	0x00000000	0.0
91	0x00000000	0.0
92	0x00000000	0.0
93	0x00000000	0.0
94	0x00000000	0.0
95	0x33491c97	4.682496e-08
96	0x3326ac29	3.8806466e-08
97	0x3328c95d	3.9298687e-08
98	0x332dcea1	4.046763e-08
99	0x33513c44	4.8716416e-08
100	0x31d9b84d	6.336484e-09
101	0x31df8fab	6.5064873e-09
102	0x318f541c	4.17141e-09
103	0x319b2738	4.5155524e-09
104	0x3202acad	7.606258e-09
105	0x3322284c	3.7755214e-08
106	0x335722cb	5.0090232e-08
107	0x3351b099	4.882222e-08
108	0x33017cbb	3.0148595e-08
109	0x3310386f	3.357894e-08
110	0x339de546	7.352587e-08
111	0x33a02154	7.456643e-08
112	0x33911e5b	6.75761e-08
113	0x33b480d5	8.4053376e-08
114	0x33b08861	8.220446e-08
115	0x3402d63d	1.2185133e-07
116	0x3408ca40	1.2739565e-07
117	0x33df65f3	1.0402791e-07
118	0x33fede6b	1.1868254e-07
119	0x33f670fe	1.1475821e-07
120	0x328842ab	1.58628e-08
121	0x32621cfa	1.316152e-08
122	0x325b52df	1.27663204e-08
123	0x3250accc	1.2146483e-08
124	0x32399c41	1.0803945e-08
125	0x338fef85	6.702525e-08
126	0x33919bde	6.780441e-08
127	0x33980df2	7.080588e-08
128	0x33983d36	7.089186e-08
129	0x33a26e39	7.563762e-08
130	0x339545d6	6.951056e-08
131	0x33892485	6.3862025e-08
132	0x33854aaf	6.20688e-08
133	0x3394e0f0	6.932703e-08
134	0x33b1d55c	8.2810146e-08
135	0x333e3f32	4.4295298e-08
136	0x3316da28	3.512301e-08
137	0x332da697	4.0431214e-08
138	0x33252458	3.845011e-08
139	0x33410df2	4.4948997e-08
140	0x336e6d9a	5.5513375e-08
141	0x333b20c7	4.356914e-08
142	0x335e5279	5.176341e-08
143	0x333a3b6f	4.3360554e-08
144	0x335e8ff8	5.181934e-08
145	0x32b8959a	2.148845e-08
146	0x328a6509	1.611126e-08
147	0x327358d7	1.4164661e-08
148	0x32af098a	2.037702e-08
149	0x327c4c34	1.4685657e-08
150	0x31f63732	7.1658173e-09
151	0x32284cc8	9.796345e-09
152	0x320b76f9	8.117916e-09
153	0x320e8937	8.296687e-09
154	0x3216c5d0	8.7761265e-09
155	0x340e0818	1.3227725e-07
156	0x340afade	1.2943516e-07
157	0x341d010d	1.4622147e-07
158	0x340d5357	1.3161967e-07
159	0x340bb020	1.3009458e-07
160	0x33b17e62	8.265194e-08
161	0x33b9d512	8.653491e-08
162	0x33ba81c3	8.6849035e-08
163	0x33c4f0ad	9.17074e-08
164	0x33a9ca05	7.906423e-08
165	0x34047515	1.2336052e-07
166	0x341141bb	1.352809e-07
167	0x340a78e8	1.2896237e-07
168	0x3424d79e	1.5352131e-07
169	0x34157644	1.3919731e-07
170	0x34309286	1.6444582e-07
171	0x3436feff	1.7042838e-07
172	0x344a48c2	1.8839185e-07
173	0x34283d2d	1.5668475e-07
174	0x34342b05	1.6779457e-07
175	0x33e1281e	1.0484676e-07
176	0x33e2aa67	1.0554941e-07
177	0x33effcbe	1.1175278e-07
178	0x340dc8b7	1.3204668e-07
179	0x33fc52be	1.1749715e-07
180	0x334cec50	4.7712376e-08
181	0x332d5e56	4.03655e-08
182	0x33098963	3.202275e-08
183	0x333e5658	4.431635e-08
184	0x3342e06a	4.537325e-08
185	0x33717dec	5.622671e-08
186	0x3378d52c	5.793588e-08
187	0x33788ed4	5.78719e-08
188	0x338415e5	6.1507116e-08
189	0x337e1a49	5.916289e-08
190	0x338307df	6.1015946e-08
191	0x33854c2b	6.20715e-08
192	0x3376db54	5.7475816e-08
193	0x337f9a37	5.951207e-08
194	0x3385592e	6.209517e-08
195	0x33570fc5	5.007293e-08
196	0x33767323	5.7381055e-08
197	0x335e8576	5.1809785e-08
198	0x336216ca	5.2640452e-08
199	0x33546179	4.9448747e-08
200	0x3316f3f7	3.514648e-08
201	0x332ce7b5	4.0257607e-08
202	0x3346cbf0	4.6285948e-08
203	0x3338f60d	4.306462e-08
204	0x33399d5e	4.3216794e-08
205	0x3427c12b	1.5623361e-07
206	0x343b1fa6	1.7427246e-07
207	0x343818cd	1.7145358e-07
208	0x3430641e	1.64277e-07
209	0x343660ad	1.6985241e-07
210	0x3405874b	1.243581e-07
211	0x33fae43f	1.168305e-07
212	0x33f20ba2	1.1271119e-07
213	0x34074ba1	1.2600368e-07
214	0x340eb375	1.3290067e-07
215	0x32b677bf	2.1242043e-08
216	0x328e0e68	1.6537527e-08
217	0x328e1f62	1.6545247e-08
218	0x328333fd	1.5274049e-08
219	0x329b3399	1.8067839e-08
220	0x340874cb	1.2708476e-07
221	0x33f6d818	1.1494575e-07
222	0x34091f83	1.2770583e-07
223	0x34146da6	1.3823464e-07
224	0x3407d548	1.2650446e-07
225	0x33f68238	1.1478954e-07
226	0x33d5455d	9.9312025e-08
227	0x33d9f05a	1.01485696e-07
228	0x33d966e2	1.0123564e-07
229	0x33ee01f3	1.1083093e-07
230	0x337dbc75	5.9077554e-08
231	0x335e33e1	5.1735586e-08
232	0x333a36e5	4.3356426e-08
233	0x334ab130	4.719294e-08
234	0x336d51ad	5.5255146e-08
235	0x33957575	6.9597185e-08
236	0x33875433	6.301743e-08
237	0x339266db	6.817364e-08
238	0x339419f3	6.896507e-08
239	0x338c32e3	6.528514e-08
240	0x32b89225	2.1486878e-08
241	0x32cef5bd	2.4093305e-08
242	0x32b2754a	2.0775264e-08
243	0x32ec1f4d	2.748825e-08
244	0x32c352cb	2.2738638e-08
245	0x33828bbc	6.079014e-08
246	0x337e750d	5.924544e-08
247	0x33742f45	5.685367e-08
248	0x336065de	5.2246712e-08
249	0x3381ff55	6.053475e-08
250	0x34033d85	1.2222706e-07
251	0x34070043	1.257295e-07
252	0x341881a9	1.4203273e-07
253	0x3426747d	1.5502333e-07
254	0x3425f768	1.5456828e-07
255	0x3392dd4a	6.838907e-08

exp_avg f4 [3]
0	0xb9053bfc	-0.00012706214
1	0x38eac633	0.00011194907
2	0x3833a8a3	4.283398e-05

exp_avg_sq f4 [3]
0	0x3553bf70	7.8882204e-07
1	0x3512a6d5	5.463201e-07
2	0x3339b65a	4.3239517e-08

exp_avg f4 [3, 1, 1]
0	0xb8079d18	-3.2332813e-05
1	0xb7d017ca	-2.480661e-05
2	0xb7c1a2eb	-2.3083257e-05

exp_avg_sq f4 [3, 1, 1]
0	0x3218e6f7	8.90008e-09
1	0x31af5c57	5.103668e-09
2	0x31712164	3.5089096e-09

exp_avg f4 [3, 3, 5]
0	0x3290ba65	1.6848569e-08
1	0xa120a18c	-5.4423914e-19
2	0xb5be94c1	-1.4199396e-06
3	0x1f2cf1ed	3.6622533e-20
4	0x23dbd124	2.3832602e-17
5	0xb670c9df	-3.5880291e-06
6	0xb6f73fb4	-7.3685896e-06
7	0xb5f021ab	-1.7891192e-06
8	0xb5d02dde	-1.5510557e-06
9	0xb6e4f9c9	-6.8240083e-06
10	0x36a23cf0	4.8350703e-06
11	0x36d693a5	6.394885e-06
12	0x371ea391	9.455617e-06
13	0x3728c14b	1.0058585e-05
14	0x36f0c8aa	7.1759177e-06
15	0xb5846df2	-9.866765e-07
16	0xb6341b8b	-2.6838122e-06
17	0x3637dfd7	2.7399417e-06
18	0xb5c09a97	-1.4350106e-06
19	0xb6812c9e	-3.8496937e-06
20	0x3691c2aa	4.3439986e-06
21	0xb65b8901	-3.271329e-06
22	0xb6745087	-3.6405706e-06
23	0xb60e3e48	-2.1195901e-06
24	0xb60bc77d	-2.0828732e-06
25	0xb6affc16	-5.244753e-06
26	0xb78a7067	-1.6503223e-05
27	0x35178bec	5.6455497e-07
28	0x35b2a4b6	1.3309971e-06
29	0x36c7e08c	5.956803e-06
30	0x27e19d19	6.262037e-15
31	0x2d08e31b	7.7811325e-12
32	0x1f1cc5fb	3.319805e-20
33	0xb5041a1c	-4.9211826e-07
34	0xb5b21be9	-1.3270156e-06
35	0xb6f7228b	-7.365195e-06
36	0xb6c98cde	-6.006666e-06
37	0x33955164	6.953158e-08
38	0xb5736d88	-9.0683943e-07
39	0x35186e77	5.678516e-07
40	0x35b2413e	1.3281021e-06
41	0x36f40ae3	7.273034e-06
42	0xb4fa4154	-4.661366e-07
43	0xb31534d7	-3.4739823e-08
44	0x36b8ee2a	5.5113533e-06

exp_avg_sq f4 [3, 3, 5]
0	0x2d8876e5	1.551421e-11
1	0x2b2ba9c3	6.0986996e-13
2	0x2f2c9b37	1.5698452e-10
3	0x2945c37c	4.3912343e-14
4	0x287d114f	1.40480745e-14
5	0x2fdc491a	4.006971e-10
6	0x2f57c785	1.962502e-10
7	0x2f83520d	2.3887062e-10
8	0x2f3e67f4	1.7317331e-10
9	0x30ddfdb1	1.615197e-09
10	0x2fba46bf	3.388347e-10
11	0x2fee7434	4.3374515e-10
12	0x30b2ca5f	1.3008722e-09
13	0x31226d8d	2.3636375e-09
14	0x30e05337	1.6321796e-09
15	0x2e18723b	3.4662256e-11
16	0x2f07565e	1.2308862e-10
17	0x2f0b6741	1.267866e-10
18	0x2e6be56d	5.3636585e-11
19	0x2f66fd43	2.1008355e-10
20	0x2eca6f80	9.205703e-11
21	0x2e9d5c0a	7.155883e-11
22	0x2f41ca64	1.7625151e-10
23	0x2f0cc34b	1.2802308e-10
24	0x2f42f60f	1.7731615e-10
25	0x30d5f051	1.5566092e-09
26	0x311e7ecd	2.3064104e-09
27	0x2fb433c3	3.2778588e-10
28	0x2fabf2d8	3.127727e-10
29	0x306a3016	8.519704e-10
30	0x28039bb0	7.30572e-15
31	0x27e6a085	6.401186e-15
32	0x28bc43d2	2.0901605e-14
33	0x2e59fca2	4.956447e-11
34	0x2edeabe6	1.01259265e-10
35	0x2f7b0f81	2.2833825e-10
36	0x2f44c688	1.7896629e-10
37	0x2f0b8c9e	1.2691934e-10
38	0x2f05c841	1.2167424e-10
39	0x2f52c94c	1.9170904e-10
40	0x2ee682a0	1.0482393e-10
41	0x2edc2cc3	1.0012393e-10
42	0x30a0b696	1.1693426e-09
43	0x30cdc892	1.4972719e-09
44	0x2f5ab237	1.9890299e-10

exp_avg f4 [3, 19, 1]
0	0xb7ebb8e4	-2.810028e-05
1	0xb8b16244	-8.458321e-05
2	0xb8546797	-5.0641214e-05
3	0xb90565fe	-0.00012721863
4	0xb8cd2a2f	-9.783019e-05
5	0xb8fe1421	-0.00012115413
6	0xb90a8bd8	-0.00013212801
7	0xb90ed983	-0.00013623205
8	0xb8464972	-4.727528e-05
9	0xb83bea77	-4.4802637e-05
10	0xb8da4dcc	-0.00010409541
11	0xb882fb1a	-6.2456544e-05
12	0xb79a21ce	-1.8373972e-05
13	0xb7d5ba3b	-2.5478299e-05
14	0xb887b58b	-6.471117e-05
15	0x385c642a	5.2545372e-05
16	0xb89d5239	-7.5016585e-05
17	0x375ffe61	1.3351063e-05
18	0xb9404a91	-0.00018338325
19	0xb7335c5c	-1.06907355e-05
20	0xb8add00e	-8.288036e-05
21	0xb8571c87	-5.1286563e-05
22	0xb8cddfd4	-9.816853e-05
23	0xb8d10746	-9.9672514e-05
24	0xb7d4ffb7	-2.5391446e-05
25	0xb8d5ee80	-0.000102010556
26	0xb8fe2ab1	-0.00012119616
27	0xb7c542d9	-2.3515358e-05
28	0xb8015ef6	-3.0844436e-05
29	0xb839166c	-4.412832e-05
30	0xb85c37a6	-5.2503914e-05
31	0x3724db8b	9.826278e-06
32	0xb6c0d1b8	-5.7464604e-06
33	0xb89ea493	-7.5646814e-05
34	0x3826d22a	3.9773215e-05
35	0xb894d420	-7.096701e-05
36	0x365975ef	3.2404166e-06
37	0xb91423ad	-0.0001412767
38	0xb7105475	-8.602733e-06
39	0xb852d075	-5.0262042e-05
40	0xb7dd4ce9	-2.6381067e-05
41	0xb881ac34	-6.183275e-05
42	0xb83ad68d	-4.454567e-05
43	0xb88d3269	-6.7327936e-05
44	0xb8a17d00	-7.700361e-05
45	0xb86fdcfa	-5.718784e-05
46	0xb8022c51	-3.1035688e-05
47	0xb7a42d54	-1.9571431e-05
48	0xb84e0b1e	-4.912458e-05
49	0xb81365e1	-3.5142413e-05
50	0xb5a1adb6	-1.2045991e-06
51	0xb7532672	-1.2585531e-05
52	0xb79c5d29	-1.864003e-05
53	0x37a16c49	1.924312e-05
54	0xb82342f2	-3.8924576e-05
55	0x36e038cf	6.6823336e-06
56	0xb8a8f49a	-8.056425e-05

exp_avg_sq f4 [3, 19, 1]
0	0x33211c25	3.751133e-08
1	0x33b45acc	8.398419e-08
2	0x33289797	3.925342e-08
3	0x34738bbc	2.2681974e-07
4	0x3467ca0e	2.1587059e-07
5	0x33b0d545	8.234432e-08
6	0x343dbe81	1.7671302e-07
7	0x34934675	2.7432148e-07
8	0x33aaf3e3	7.9606046e-08
9	0x33895316	6.394673e-08
10	0x33bca6b1	8.784753e-08
11	0x3394ad22	6.92328e-08
12	0x339d22c4	7.317206e-08
13	0x3337d205	4.279902e-08
14	0x347a5c61	2.3316672e-07
15	0x336dc3a5	5.53588e-08
16	0x34491a4b	1.8729149e-07
17	0x3289be36	1.6035397e-08
18	0x3485a79f	2.489514e-07
19	0x32e8126c	2.7016732e-08
20	0x3391ab43	6.783241e-08
21	0x3307faa6	3.16601e-08
22	0x3442bee8	1.8137109e-07
23	0x341b5af5	1.446859e-07
24	0x3362f119	5.2839003e-08
25	0x3419be3a	1.431844e-07
26	0x344a9f5b	1.8870689e-07
27	0x33490037	4.6799155e-08
28	0x334c5eed	4.7583786e-08
29	0x336e9a82	5.5554217e-08
30	0x336e3eeb	5.5470917e-08
31	0x33779f39	5.765398e-08
32	0x331a519c	3.5930142e-08
33	0x3441af8b	1.8038388e-07
34	0x33515c58	4.874559e-08
35	0x342ff020	1.6385502e-07
36	0x326576b6	1.3356546e-08
37	0x344ce883	1.9083568e-07
38	0x32611782	1.3102069e-08
39	0x33021968	3.029109e-08
40	0x327b826e	1.4639779e-08
41	0x33b0722b	8.216406e-08
42	0x3393c837	6.88164e-08
43	0x32f2f764	2.8285008e-08
44	0x338bc4ca	6.5084876e-08
45	0x33d01a34	9.690521e-08
46	0x32e8ded3	2.7109683e-08
47	0x32c47389	2.2869942e-08
48	0x32f444d4	2.8436638e-08
49	0x32d15de4	2.4373499e-08
50	0x32d74788	2.5061823e-08
51	0x32860c6b	1.56053e-08
52	0x33ac32ca	8.0186126e-08
53	0x32a888e3	1.9620023e-08
54	0x339f2100	7.410017e-08
55	0x31c0735e	5.601051e-09
56	0x33c3ad96	9.11197e-08

exp_avg f4 [3]
0	0xb988f486	-0.00026122126
1	0xb98884f0	-0.00026038988
2	0xb92054a4	-0.0001529032

exp_avg_sq f4 [3]
0	0x35409a61	7.1750225e-07
1	0x35135eb3	5.4899573e-07
2	0x3487a9ea	2.5269338e-07

exp_avg f4 [3]
0	0xb862ed2e	-5.410349e-05
1	0xb9959cb0	-0.00028536236
2	0x00000000	0.0

exp_avg_sq f4 [3]
0	0x335cb04b	5.138308e-08
1	0x359f1d2e	1.1854916e-06
2	0x00000000	0.0

exp_avg f4 [3, 1, 1]
0	0xb68bbce0	-4.1645108e-06
1	0x3758d080	1.29231485e-05
2	0x00000000	0.0

exp_avg_sq f4 [3, 1, 1]
0	0x302ac207	6.212137e-10
1	0x318bebd5	4.0722434e-09
2	0x00000000	0.0

exp_avg f4 [3, 3, 5]
0	0xb75879a0	-1.2902921e-05
1	0xb6fe70de	-7.5829294e-06
2	0xb784398a	-1.576242e-05
3	0xb73b1560	-1.1151045e-05
4	0xb732597a	-1.063046e-05
5	0x353e3f87	7.087296e-07
6	0xb7237678	-9.74314e-06
7	0xb6a4e371	-4.9140585e-06
8	0xb7f26c2b	-2.8899018e-05
9	0xb653a0ab	-3.1534971e-06
10	0xb8376d7e	-4.3732573e-05
11	0xb867c846	-5.526121e-05
12	0xb8739a64	-5.8079502e-05
13	0xb83dc56d	-4.524498e-05
14	0xb83cc672	-4.500751e-05
15	0xb9432581	-0.0001861062
16	0xb9651e5b	-0.0002185045
17	0xb96bc428	-0.0002248442
18	0xb93c2e2c	-0.00017946278
19	0xb9207233	-0.00015301332
20	0xb9064e3d	-0.00012808382
21	0xb914c79c	-0.0001418874
22	0xb89162d3	-6.932546e-05
23	0xb8c04045	-9.1672446e-05
24	0xb8d92abf	-0.000103553284
25	0xba203ebe	-0.0006112865
26	0xba132076	-0.0005612442
27	0xba1a631a	-0.0005889401
28	0xba0fd431	-0.0005486636
29	0xba09525a	-0.00052384066
30	0x00000000	0.0
31	0x00000000	0.0
32	0x00000000	0.0
33	0x00000000	0.0
34	0x00000000	0.0
35	0x00000000	0.0
36	0x00000000	0.0
37	0x00000000	0.0
38	0x00000000	0.0
39	0x00000000	0.0
40	0x00000000	0.0
41	0x00000000	0.0
42	0x00000000	0.0
43	0x00000000	0.0
44	0x00000000	0.0

exp_avg_sq f4 [3, 3, 5]
0	0x3282ce59	1.5227828e-08
1	0x32903e11	1.679203e-08
2	0x3271fb86	1.4085236e-08
3	0x32838cf8	1.5314512e-08
4	0x327f09db	1.4845194e-08
5	0x32238f51	9.520435e-09
6	0x323c5e91	1.0964542e-08
7	0x3205ee76	7.795839e-09
8	0x3225bddb	9.647432e-09
9	0x32313b43	1.03162305e-08
10	0x33a8ee5c	7.866467e-08
11	0x33aa0852	7.917755e-08
12	0x33a681a1	7.753557e-08
13	0x33a84e0b	7.8373056e-08
14	0x339ffbfb	7.4498494e-08
15	0x3517aaae	5.6500255e-07
16	0x352f68e1	6.53452e-07
17	0x3541229c	7.1948466e-07
18	0x352c837d	6.4266334e-07
19	0x34fed090	4.7462936e-07
20	0x34c61a53	3.6899527e-07
21	0x34bbc543	3.497499e-07
22	0x34a2e5a6	3.0341943e-07
23	0x34a033d6	2.9840038e-07
24	0x3485afe6	2.4901163e-07
25	0x36836406	3.9157485e-06
26	0x368a95ef	4.130175e-06
27	0x3689ffe5	4.112708e-06
28	0x36892f65	4.0884356e-06
29	0x36775746	3.6856668e-06
30	0x00000000	0.0
31	0x00000000	0.0
32	0x00000000	0.0
33	0x00000000	0.0
34	0x00000000	0.0
35	0x00000000	0.0
36	0x00000000	0.0
37	0x00000000	0.0
38	0x00000000	0.0
39	0x00000000	0.0
40	0x00000000	0.0
41	0x00000000	0.0
42	0x00000000	0.0
43	0x00000000	0.0
44	0x00000000	0.0

exp_avg f4 [3]
0	0xb961b7e5	-0.00021526178
1	0xb94021aa	-0.00018323088
2	0xb928517c	-0.00016052084

exp_avg_sq f4 [3]
0	0x350cf55b	5.2511103e-07
1	0x3525b479	6.172991e-07
2	0x3494e695	2.773492e-07

exp_avg f4 [3, 1, 1]
0	0xb6a1cdfe	-4.8221546e-06
1	0xb686b9a1	-4.0151212e-06
2	0xb6c2b137	-5.802281e-06

exp_avg_sq f4 [3, 1, 1]
0	0x306bf980	8.5847063e-10
1	0x300e7652	5.182744e-10
2	0x3008902e	4.9681403e-10

exp_avg f4 [3, 3, 5]
0	0xb65608a8	-3.1893524e-06
1	0xb6879e92	-4.0417735e-06
2	0xb5097a59	-5.1214516e-07
3	0x363c0ba6	2.8020963e-06
4	0xb564063b	-8.4945685e-07
5	0xb71565fe	-8.904839e-06
6	0xb68bab40	-4.162459e-06
7	0x358af2bc	1.0352446e-06
8	0xb4d407ba	-3.94937e-07
9	0xb5a8e87b	-1.2584636e-06
10	0x289a1041	1.7104484e-14
11	0x359a2ff9	1.1487856e-06
12	0x32840a23	1.5371432e-08
13	0x320b1869	8.096415e-09
14	0x287a6e09	1.3901648e-14
15	0xb5b670e1	-1.3592909e-06
16	0xb46683c0	-2.146835e-07
17	0xb62357e0	-2.4340043e-06
18	0x35fa0328	1.862737e-06
19	0x36a1939c	4.815358e-06
20	0xb725e10f	-9.887167e-06
21	0xb6b55d59	-5.4050874e-06
22	0x36a41391	4.8898587e-06
23	0xb48a9cd4	-2.581861e-07
24	0xb66c99c1	-3.5256237e-06
25	0x33d86643	1.0076885e-07
26	0xb5d27b95	-1.5682186e-06
27	0x3584d3c7	9.896402e-07
28	0x35c4fe7d	1.4677204e-06
29	0xb56fdf45	-8.935934e-07
30	0xb6b575a7	-5.407917e-06
31	0xb5bd72f8	-1.4115058e-06
32	0xb6030eff	-1.952925e-06
33	0xb60eee9e	-2.1298542e-06
34	0xb5774eaa	-9.212914e-07
35	0x3546603d	7.3900793e-07
36	0xb684ff6f	-3.963643e-06
37	0xb66f9e13	-3.5705787e-06
38	0xb701a073	-7.726357e-06
39	0xb4833b5b	-2.4443838e-07
40	0xa7cc9791	-5.6785703e-15
41	0xa88eb9a7	-1.584568e-14
42	0x27a35647	4.533513e-15
43	0x295483f4	4.7187907e-14
44	0xa7b98fdd	-5.150379e-15

exp_avg_sq f4 [3, 3, 5]
0	0x2ff68d2b	4.4847445e-10
1	0x2fa74b3c	3.043058e-10
2	0x2f63c7a0	2.0716451e-10
3	0x2fd47298	3.8644e-10
4	0x2f922cd0	2.6589086e-10
5	0x3097b7d9	1.1038949e-09
6	0x30da6b23	1.5892038e-09
7	0x30a8e20b	1.2287854e-09
8	0x2fd40e5a	3.8572773e-10
9	0x2ec2e47d	8.862686e-11
10	0x274e6b27	2.864633e-15
11	0x2e998764	6.981685e-11
12	0x2bb1586b	1.2601147e-12
13	0x2b8a5ce1	9.831269e-13
14	0x274f7061	2.8787941e-15
15	0x2fb05aa4	3.2078618e-10
16	0x2ed7c446	9.811933e-11
17	0x2e8cd2ec	6.40393e-11
18	0x2f35ebc1	1.6545611e-10
19	0x2e9cd6f8	7.132245e-11
20	0x305e316b	8.0833357e-10
21	0x3033fa70	6.5475714e-10
22	0x304edb0a	7.5253637e-10
23	0x30784aa7	9.032796e-10
24	0x3013e30c	5.380094e-10
25	0x2bc1c1d7	1.3767276e-12
26	0x2e9e5e15	7.2017205e-11
27	0x2e0bf61e	3.1823537e-11
28	0x2e8c79d1	6.388102e-11
29	0x2deaedc5	2.6708311e-11
30	0x3043a767	7.117848e-10
31	0x30486e35	7.291619e-10
32	0x2fac0093	3.1287026e-10
33	0x2fd4c711	3.870402e-10
34	0x2f9cd9ed	2.853108e-10
35	0x30882ff6	9.908934e-10
36	0x3063beee	8.2853446e-10
37	0x30e41e26	1.6597752e-09
38	0x30b5bd74	1.3223329e-09
39	0x2f09acc3	1.2521455e-10
40	0x27c9285c	5.5832465e-15
41	0x2781e8a0	3.6056905e-15
42	0x283e414c	1.0561278e-14
43	0x278e9537	3.9574696e-15
44	0x283ab48f	1.03642265e-14

exp_avg f4 [3]
0	0x3763031a	1.35309765e-05
1	0xb817e658	-3.621573e-05
2	0x38996086	7.3135874e-05

exp_avg_sq f4 [3]
0	0x32144800	8.631105e-09
1	0x32e28d3d	2.637409e-08
2	0x33785956	5.782325e-08

exp_avg f4 [3, 1, 1]
0	0xb5eb4645	-1.7529316e-06
1	0xb6f63358	-7.3373485e-06
2	0xb6cc34e1	-6.0858297e-06

exp_avg_sq f4 [3, 1, 1]
0	0x317646ea	3.5838021e-09
1	0x2f6c4e64	2.1491925e-10
2	0x3048e6b7	7.308744e-10

exp_avg f4 [3, 3, 5]
0	0xb4107643	-1.3454068e-07
1	0x36524026	3.1329778e-06
2	0x36dc909f	6.573347e-06
3	0x3709c7f0	8.212388e-06
4	0x3671e139	3.6042895e-06
5	0x37398345	1.1057423e-05
6	0x36e7aa2b	6.9041466e-06
7	0x372474a3	9.802318e-06
8	0xb61854b7	-2.2699076e-06
9	0x36448897	2.9285782e-06
10	0x372bcf4f	1.0240662e-05
11	0x373e09de	1.132718e-05
12	0x37a25cb2	1.935507e-05
13	0x37918f5d	1.7352106e-05
14	0x359c1289	1.16283e-06
15	0xb7a8ccad	-2.012247e-05
16	0xb79dea8f	-1.8825083e-05
17	0xb7a9279e	-2.0164818e-05
18	0xb7a62a7d	-1.9808527e-05
19	0xb7b8c868	-2.202783e-05
20	0xb76ed5bc	-1.4235669e-05
21	0xb78d11ac	-1.6816739e-05
22	0xb792e982	-1.7513292e-05
23	0xb75f42fb	-1.3307431e-05
24	0xb782067d	-1.5500229e-05
25	0xb8395749	-4.4188728e-05
26	0xb8511a9f	-4.9854276e-05
27	0xb8491d92	-4.7949674e-05
28	0xb85242b1	-5.0130013e-05
29	0xb84c6325	-4.8729726e-05
30	0x370bc7a6	8.33153e-06
31	0x372ea61c	1.04098835e-05
32	0x3741c06c	1.1548498e-05
33	0x373cb9d4	1.124894e-05
34	0x37477e21	1.1890691e-05
35	0x3762708d	1.3496855e-05
36	0x372cadfd	1.0292509e-05
37	0x373fe1bb	1.1437044e-05
38	0x3703d581	7.857919e-06
39	0x36ad0eb4	5.1575134e-06
40	0x38551a88	5.0807867e-05
41	0x385fc847	5.3353866e-05
42	0x386b2ea3	5.60718e-05
43	0x3865a578	5.475196e-05
44	0x384d5655	4.895621e-05

exp_avg_sq f4 [3, 3, 5]
0	0x30658dad	8.351105e-10
1	0x311b504e	2.2601117e-09
2	0x310461aa	1.9264044e-09
3	0x315b0360	3.1870613e-09
4	0x30206353	5.834881e-10
5	0x30912c2e	1.0562695e-09
6	0x31174575	2.2012874e-09
7	0x309701ab	1.098717e-09
8	0x308f6bbd	1.043524e-09
9	0x2e40dbf4	4.3851103e-11
10	0x321a9a09	8.999003e-09
11	0x32187282	8.8736005e-09
12	0x3207be64	7.901324e-09
13	0x32309e8b	1.0280597e-08
14	0x32237ced	9.516254e-09
15	0x310ca83f	2.0468318e-09
16	0x3127a385	2.4394649e-09
17	0x312e23ca	2.5340676e-09
18	0x3118cd94	2.2235769e-09
19	0x314a582d	2.944499e-09
20	0x314002e2	2.7941316e-09
21	0x312b3fed	2.4920113e-09
22	0x3133d0db	2.6166649e-09
23	0x315109c1	3.0419047e-09
24	0x3131b84b	2.5861648e-09
25	0x32bebddf	2.2205255e-08
26	0x32ce21c8	2.3996918e-08
27	0x32cf9202	2.4164368e-08
28	0x32cfdf57	2.4199535e-08
29	0x32dc7ed2	2.5669042e-08
30	0x316f491c	3.4820635e-09
31	0x31646dd2	3.3240792e-09
32	0x318275ea	3.7969032e-09
33	0x3165fa6b	3.3466232e-09
34	0x31a114f4	4.688099e-09
35	0x3115bdf7	2.1790336e-09
36	0x311327c0	2.141391e-09
37	0x313ac489	2.717828e-09
38	0x316d6ace	3.454875e-09
39	0x31516322	3.0469853e-09
40	0x3309df19	3.2100704e-08
41	0x3315be47	3.4864822e-08
42	0x33182493	3.5423522e-08
43	0x331e7d0e	3.690098e-08
44	0x33227577	3.7825398e-08

exp_avg f4 [3]
0	0xb71a4816	-9.195899e-06
1	0x37afd283	2.0959653e-05
2	0xb877a202	-5.904027e-05

exp_avg_sq f4 [3]
0	0x3407a3ca	1.2632441e-07
1	0x3255f90e	1.245486e-08
2	0x34858ccf	2.4875632e-07

exp_avg f4 [3, 1, 1]
0	0x357cdaf7	9.419595e-07
1	0xb59e6e69	-1.1804051e-06
2	0x3572cdfd	9.045178e-07

exp_avg_sq f4 [3, 1, 1]
0	0x3110ae8e	2.105398e-09
1	0x2fb0e9e2	3.2180397e-10
2	0x311c6d40	2.276309e-09

exp_avg f4 [3, 3, 5]
0	0x3661ff2d	3.3676145e-06
1	0x372ecb7b	1.0418585e-05
2	0x3688b39c	4.074025e-06
3	0x3599f6c8	1.1471211e-06
4	0x369f8b5c	4.754793e-06
5	0xb6319281	-2.6460332e-06
6	0xb56da6c0	-8.8532033e-07
7	0xb5c93209	-1.4990229e-06
8	0x358bd20e	1.0417441e-06
9	0xb6659e16	-3.4215677e-06
10	0xb51d481c	-5.859199e-07
11	0xb69a1d64	-4.592979e-06
12	0xb6afb416	-5.236371e-06
13	0xb6876d03	-4.036004e-06
14	0xb6b9a09f	-5.5321284e-06
15	0x367342ca	3.6248698e-06
16	0x365918e0	3.235e-06
17	0xb704a8f3	-7.90715e-06
18	0xb67be39f	-3.7534408e-06
19	0xb57aae5e	-9.3385995e-07
20	0x35684f5e	8.654223e-07
21	0x35a7c06d	1.2498473e-06
22	0xb58e9280	-1.0622462e-06
23	0x35d4f693	1.5866993e-06
24	0xb60d8816	-2.108985e-06
25	0x363f7afe	2.8532809e-06
26	0x34da888a	4.070501e-07
27	0xb5fd4f9d	-1.8873139e-06
28	0x34b1ef81	3.314308e-07
29	0xb614c09f	-2.2165839e-06
30	0x3687a1cc	4.042149e-06
31	0x36a7b3fb	4.9979403e-06
32	0x36f12b2b	7.187385e-06
33	0x377747f3	1.4739099e-05
34	0x378cf4af	1.680324e-05
35	0xb71d7a14	-9.386353e-06
36	0xb6919d7a	-4.3396694e-06
37	0xb6a72300	-4.9810624e-06
38	0x3653234b	3.1461993e-06
39	0xb6b2b7ef	-5.326226e-06
40	0xb7fb4d25	-2.9957455e-05
41	0xb7bd4ad6	-2.2565404e-05
42	0xb7c13642	-2.3032659e-05
43	0xb7915502	-1.7324932e-05
44	0xb7875259	-1.61316e-05

exp_avg_sq f4 [3, 3, 5]
0	0x311bc937	2.2669846e-09
1	0x30cd7f43	1.4951883e-09
2	0x30c12e6e	1.4055794e-09
3	0x310391d9	1.9145914e-09
4	0x30fb345c	1.8277535e-09
5	0x2ea46b4e	7.476918e-11
6	0x2e50632b	4.7381803e-11
7	0x2eb5c569	8.265994e-11
8	0x2f1db4c2	1.4343285e-10
9	0x2e7b5d27	5.715353e-11
10	0x3001d887	4.723763e-10
11	0x3011451d	5.284891e-10
12	0x2fbea87a	3.4680508e-10
13	0x2fdbb9e3	3.9967948e-10
14	0x2fbc8ca0	3.429692e-10
15	0x30e279c1	1.6478269e-09
16	0x30dcbc62	1.6060648e-09
17	0x30f2b21e	1.7658441e-09
18	0x310044fc	1.8665665e-09
19	0x311b12aa	2.2566078e-09
20	0x2dafabb7	1.9971453e-11
21	0x2dc74b73	2.2657187e-11
22	0x2c3f5e4c	2.7195078e-12
23	0x2daf70a0	1.9945212e-11
24	0x2de3b5e0	2.5887681e-11
25	0x2e545429	4.827797e-11
26	0x2dc1b048	2.2019844e-11
27	0x2ea42cb5	7.465798e-11
28	0x2ebbbb1d	8.5370135e-11
29	0x2f115cb7	1.3220612e-10
30	0x31acfd81	5.034679e-09
31	0x3112b6ac	2.1349633e-09
32	0x30ea42c7	1.704472e-09
33	0x309fbe9e	1.1622949e-09
34	0x301c112d	5.677688e-10
35	0x30091308	4.9867355e-10
36	0x2e5edf77	5.0675433e-11
37	0x300d092e	5.1308546e-10
38	0x30186363	5.5438515e-10
39	0x2fa47acf	2.9918687e-10
40	0x3180efe3	3.7525623e-09
41	0x31a40424	4.773499e-09
42	0x3113c99a	2.1505913e-09
43	0x31133589	2.1421747e-09
44	0x30440cd6	7.1322626e-10

exp_avg f4 [3]
0	0x00000000	0.0
1	0xb6b05b3c	-5.25583e-06
2	0x3804c35d	3.16532e-05

exp_avg_sq f4 [3]
0	0x00000000	0.0
1	0x2f19befb	1.3983119e-10
2	0x33347437	4.2015213e-08

exp_avg f4 [3, 1, 1]
0	0x00000000	0.0
1	0xb59d7cec	-1.1733769e-06
2	0xb695ede0	-4.4682383e-06

exp_avg_sq f4 [3, 1, 1]
0	0x00000000	0.0
1	0x2c0d5a5b	2.0087463e-12
2	0x3129728b	2.4657847e-09
